…
I20251117 21:24:17 553249 dinov2 ssl_meta_arch.py:400] Student and Teacher are built: they are both vit_large network.
I20251117 21:24:17 553249 dinov2 ssl_meta_arch.py:691] DISTRIBUTED FSDP -- preparing model for distributed training
I20251117 21:24:17 553249 dinov2 train.py:340] Model:
SSLMetaArch(
  (dino_loss): DINOLoss()
  (koleo_loss): KoLeoLoss(
    (pdist): PairwiseDistance()
  )
  (ibot_patch_loss): iBOTPatchLoss()
  (student): ModuleDict(
    (backbone): FullyShardedDataParallel(
      (_fsdp_wrapped_module): BackboneAdapter(
        (model): VisionTransformer(
          (patch_embed): PatchEmbed(
            (proj): Conv2d(3, 1024, kernel_size=(16, 16), stride=(16, 16))
            (norm): Identity()
          )
          (pos_drop): Dropout(p=0.0, inplace=False)
          (patch_drop): Identity()
          (norm_pre): Identity()
          (blocks): Sequential(
            (0): Block(
              (norm1): LayerNorm((1024,), eps=1e-06, elementwise_affine=True)
              (attn): Attention(
                (qkv): Linear(in_features=1024, out_features=3072, bias=True)
                (q_norm): Identity()
                (k_norm): Identity()
                (attn_drop): Dropout(p=0.0, inplace=False)
                (norm): Identity()
                (proj): Linear(in_features=1024, out_features=1024, bias=True)
                (proj_drop): Dropout(p=0.0, inplace=False)
              )
              (ls1): LayerScale()
              (drop_path1): Identity()
              (norm2): LayerNorm((1024,), eps=1e-06, elementwise_affine=True)
              (mlp): Mlp(
                (fc1): Linear(in_features=1024, out_features=4096, bias=True)
                (act): GELU(approximate='none')
                (drop1): Dropout(p=0.0, inplace=False)
                (norm): Identity()
                (fc2): Linear(in_features=4096, out_features=1024, bias=True)
                (drop2): Dropout(p=0.0, inplace=False)
              )
              (ls2): LayerScale()
              (drop_path2): Identity()
            )
            (1): Block(
              (norm1): LayerNorm((1024,), eps=1e-06, elementwise_affine=True)
              (attn): Attention(
                (qkv): Linear(in_features=1024, out_features=3072, bias=True)
                (q_norm): Identity()
                (k_norm): Identity()
                (attn_drop): Dropout(p=0.0, inplace=False)
                (norm): Identity()
                (proj): Linear(in_features=1024, out_features=1024, bias=True)
                (proj_drop): Dropout(p=0.0, inplace=False)
              )
              (ls1): LayerScale()
              (drop_path1): Identity()
              (norm2): LayerNorm((1024,), eps=1e-06, elementwise_affine=True)
              (mlp): Mlp(
                (fc1): Linear(in_features=1024, out_features=4096, bias=True)
                (act): GELU(approximate='none')
                (drop1): Dropout(p=0.0, inplace=False)
                (norm): Identity()
                (fc2): Linear(in_features=4096, out_features=1024, bias=True)
                (drop2): Dropout(p=0.0, inplace=False)
              )
              (ls2): LayerScale()
              (drop_path2): Identity()
            )
            (2): Block(
              (norm1): LayerNorm((1024,), eps=1e-06, elementwise_affine=True)
              (attn): Attention(
                (qkv): Linear(in_features=1024, out_features=3072, bias=True)
                (q_norm): Identity()
                (k_norm): Identity()
                (attn_drop): Dropout(p=0.0, inplace=False)
                (norm): Identity()
                (proj): Linear(in_features=1024, out_features=1024, bias=True)
                (proj_drop): Dropout(p=0.0, inplace=False)
              )
              (ls1): LayerScale()
              (drop_path1): Identity()
              (norm2): LayerNorm((1024,), eps=1e-06, elementwise_affine=True)
              (mlp): Mlp(
                (fc1): Linear(in_features=1024, out_features=4096, bias=True)
                (act): GELU(approximate='none')
                (drop1): Dropout(p=0.0, inplace=False)
                (norm): Identity()
                (fc2): Linear(in_features=4096, out_features=1024, bias=True)
                (drop2): Dropout(p=0.0, inplace=False)
              )
              (ls2): LayerScale()
              (drop_path2): Identity()
            )
            (3): Block(
              (norm1): LayerNorm((1024,), eps=1e-06, elementwise_affine=True)
              (attn): Attention(
                (qkv): Linear(in_features=1024, out_features=3072, bias=True)
                (q_norm): Identity()
                (k_norm): Identity()
                (attn_drop): Dropout(p=0.0, inplace=False)
                (norm): Identity()
                (proj): Linear(in_features=1024, out_features=1024, bias=True)
                (proj_drop): Dropout(p=0.0, inplace=False)
              )
              (ls1): LayerScale()
              (drop_path1): Identity()
              (norm2): LayerNorm((1024,), eps=1e-06, elementwise_affine=True)
              (mlp): Mlp(
                (fc1): Linear(in_features=1024, out_features=4096, bias=True)
                (act): GELU(approximate='none')
                (drop1): Dropout(p=0.0, inplace=False)
                (norm): Identity()
                (fc2): Linear(in_features=4096, out_features=1024, bias=True)
                (drop2): Dropout(p=0.0, inplace=False)
              )
              (ls2): LayerScale()
              (drop_path2): Identity()
            )
            (4): Block(
              (norm1): LayerNorm((1024,), eps=1e-06, elementwise_affine=True)
              (attn): Attention(
                (qkv): Linear(in_features=1024, out_features=3072, bias=True)
                (q_norm): Identity()
                (k_norm): Identity()
                (attn_drop): Dropout(p=0.0, inplace=False)
                (norm): Identity()
                (proj): Linear(in_features=1024, out_features=1024, bias=True)
                (proj_drop): Dropout(p=0.0, inplace=False)
              )
              (ls1): LayerScale()
              (drop_path1): Identity()
              (norm2): LayerNorm((1024,), eps=1e-06, elementwise_affine=True)
              (mlp): Mlp(
                (fc1): Linear(in_features=1024, out_features=4096, bias=True)
                (act): GELU(approximate='none')
                (drop1): Dropout(p=0.0, inplace=False)
                (norm): Identity()
                (fc2): Linear(in_features=4096, out_features=1024, bias=True)
                (drop2): Dropout(p=0.0, inplace=False)
              )
              (ls2): LayerScale()
              (drop_path2): Identity()
            )
            (5): Block(
              (norm1): LayerNorm((1024,), eps=1e-06, elementwise_affine=True)
              (attn): Attention(
                (qkv): Linear(in_features=1024, out_features=3072, bias=True)
                (q_norm): Identity()
                (k_norm): Identity()
                (attn_drop): Dropout(p=0.0, inplace=False)
                (norm): Identity()
                (proj): Linear(in_features=1024, out_features=1024, bias=True)
                (proj_drop): Dropout(p=0.0, inplace=False)
              )
              (ls1): LayerScale()
              (drop_path1): Identity()
              (norm2): LayerNorm((1024,), eps=1e-06, elementwise_affine=True)
              (mlp): Mlp(
                (fc1): Linear(in_features=1024, out_features=4096, bias=True)
                (act): GELU(approximate='none')
                (drop1): Dropout(p=0.0, inplace=False)
                (norm): Identity()
                (fc2): Linear(in_features=4096, out_features=1024, bias=True)
                (drop2): Dropout(p=0.0, inplace=False)
              )
              (ls2): LayerScale()
              (drop_path2): Identity()
            )
            (6): Block(
              (norm1): LayerNorm((1024,), eps=1e-06, elementwise_affine=True)
              (attn): Attention(
                (qkv): Linear(in_features=1024, out_features=3072, bias=True)
                (q_norm): Identity()
                (k_norm): Identity()
                (attn_drop): Dropout(p=0.0, inplace=False)
                (norm): Identity()
                (proj): Linear(in_features=1024, out_features=1024, bias=True)
                (proj_drop): Dropout(p=0.0, inplace=False)
              )
              (ls1): LayerScale()
              (drop_path1): Identity()
              (norm2): LayerNorm((1024,), eps=1e-06, elementwise_affine=True)
              (mlp): Mlp(
                (fc1): Linear(in_features=1024, out_features=4096, bias=True)
                (act): GELU(approximate='none')
                (drop1): Dropout(p=0.0, inplace=False)
                (norm): Identity()
                (fc2): Linear(in_features=4096, out_features=1024, bias=True)
                (drop2): Dropout(p=0.0, inplace=False)
              )
              (ls2): LayerScale()
              (drop_path2): Identity()
            )
            (7): Block(
              (norm1): LayerNorm((1024,), eps=1e-06, elementwise_affine=True)
              (attn): Attention(
                (qkv): Linear(in_features=1024, out_features=3072, bias=True)
                (q_norm): Identity()
                (k_norm): Identity()
                (attn_drop): Dropout(p=0.0, inplace=False)
                (norm): Identity()
                (proj): Linear(in_features=1024, out_features=1024, bias=True)
                (proj_drop): Dropout(p=0.0, inplace=False)
              )
              (ls1): LayerScale()
              (drop_path1): Identity()
              (norm2): LayerNorm((1024,), eps=1e-06, elementwise_affine=True)
              (mlp): Mlp(
                (fc1): Linear(in_features=1024, out_features=4096, bias=True)
                (act): GELU(approximate='none')
                (drop1): Dropout(p=0.0, inplace=False)
                (norm): Identity()
                (fc2): Linear(in_features=4096, out_features=1024, bias=True)
                (drop2): Dropout(p=0.0, inplace=False)
              )
              (ls2): LayerScale()
              (drop_path2): Identity()
            )
            (8): Block(
              (norm1): LayerNorm((1024,), eps=1e-06, elementwise_affine=True)
              (attn): Attention(
                (qkv): Linear(in_features=1024, out_features=3072, bias=True)
                (q_norm): Identity()
                (k_norm): Identity()
                (attn_drop): Dropout(p=0.0, inplace=False)
                (norm): Identity()
                (proj): Linear(in_features=1024, out_features=1024, bias=True)
                (proj_drop): Dropout(p=0.0, inplace=False)
              )
              (ls1): LayerScale()
              (drop_path1): Identity()
              (norm2): LayerNorm((1024,), eps=1e-06, elementwise_affine=True)
              (mlp): Mlp(
                (fc1): Linear(in_features=1024, out_features=4096, bias=True)
                (act): GELU(approximate='none')
                (drop1): Dropout(p=0.0, inplace=False)
                (norm): Identity()
                (fc2): Linear(in_features=4096, out_features=1024, bias=True)
                (drop2): Dropout(p=0.0, inplace=False)
              )
              (ls2): LayerScale()
              (drop_path2): Identity()
            )
            (9): Block(
              (norm1): LayerNorm((1024,), eps=1e-06, elementwise_affine=True)
              (attn): Attention(
                (qkv): Linear(in_features=1024, out_features=3072, bias=True)
                (q_norm): Identity()
                (k_norm): Identity()
                (attn_drop): Dropout(p=0.0, inplace=False)
                (norm): Identity()
                (proj): Linear(in_features=1024, out_features=1024, bias=True)
                (proj_drop): Dropout(p=0.0, inplace=False)
              )
              (ls1): LayerScale()
              (drop_path1): Identity()
              (norm2): LayerNorm((1024,), eps=1e-06, elementwise_affine=True)
              (mlp): Mlp(
                (fc1): Linear(in_features=1024, out_features=4096, bias=True)
                (act): GELU(approximate='none')
                (drop1): Dropout(p=0.0, inplace=False)
                (norm): Identity()
                (fc2): Linear(in_features=4096, out_features=1024, bias=True)
                (drop2): Dropout(p=0.0, inplace=False)
              )
              (ls2): LayerScale()
              (drop_path2): Identity()
            )
            (10): Block(
              (norm1): LayerNorm((1024,), eps=1e-06, elementwise_affine=True)
              (attn): Attention(
                (qkv): Linear(in_features=1024, out_features=3072, bias=True)
                (q_norm): Identity()
                (k_norm): Identity()
                (attn_drop): Dropout(p=0.0, inplace=False)
                (norm): Identity()
                (proj): Linear(in_features=1024, out_features=1024, bias=True)
                (proj_drop): Dropout(p=0.0, inplace=False)
              )
              (ls1): LayerScale()
              (drop_path1): Identity()
              (norm2): LayerNorm((1024,), eps=1e-06, elementwise_affine=True)
              (mlp): Mlp(
                (fc1): Linear(in_features=1024, out_features=4096, bias=True)
                (act): GELU(approximate='none')
                (drop1): Dropout(p=0.0, inplace=False)
                (norm): Identity()
                (fc2): Linear(in_features=4096, out_features=1024, bias=True)
                (drop2): Dropout(p=0.0, inplace=False)
              )
              (ls2): LayerScale()
              (drop_path2): Identity()
            )
            (11): Block(
              (norm1): LayerNorm((1024,), eps=1e-06, elementwise_affine=True)
              (attn): Attention(
                (qkv): Linear(in_features=1024, out_features=3072, bias=True)
                (q_norm): Identity()
                (k_norm): Identity()
                (attn_drop): Dropout(p=0.0, inplace=False)
                (norm): Identity()
                (proj): Linear(in_features=1024, out_features=1024, bias=True)
                (proj_drop): Dropout(p=0.0, inplace=False)
              )
              (ls1): LayerScale()
              (drop_path1): Identity()
              (norm2): LayerNorm((1024,), eps=1e-06, elementwise_affine=True)
              (mlp): Mlp(
                (fc1): Linear(in_features=1024, out_features=4096, bias=True)
                (act): GELU(approximate='none')
                (drop1): Dropout(p=0.0, inplace=False)
                (norm): Identity()
                (fc2): Linear(in_features=4096, out_features=1024, bias=True)
                (drop2): Dropout(p=0.0, inplace=False)
              )
              (ls2): LayerScale()
              (drop_path2): Identity()
            )
            (12): Block(
              (norm1): LayerNorm((1024,), eps=1e-06, elementwise_affine=True)
              (attn): Attention(
                (qkv): Linear(in_features=1024, out_features=3072, bias=True)
                (q_norm): Identity()
                (k_norm): Identity()
                (attn_drop): Dropout(p=0.0, inplace=False)
                (norm): Identity()
                (proj): Linear(in_features=1024, out_features=1024, bias=True)
                (proj_drop): Dropout(p=0.0, inplace=False)
              )
              (ls1): LayerScale()
              (drop_path1): Identity()
              (norm2): LayerNorm((1024,), eps=1e-06, elementwise_affine=True)
              (mlp): Mlp(
                (fc1): Linear(in_features=1024, out_features=4096, bias=True)
                (act): GELU(approximate='none')
                (drop1): Dropout(p=0.0, inplace=False)
                (norm): Identity()
                (fc2): Linear(in_features=4096, out_features=1024, bias=True)
                (drop2): Dropout(p=0.0, inplace=False)
              )
              (ls2): LayerScale()
              (drop_path2): Identity()
            )
            (13): Block(
              (norm1): LayerNorm((1024,), eps=1e-06, elementwise_affine=True)
              (attn): Attention(
                (qkv): Linear(in_features=1024, out_features=3072, bias=True)
                (q_norm): Identity()
                (k_norm): Identity()
                (attn_drop): Dropout(p=0.0, inplace=False)
                (norm): Identity()
                (proj): Linear(in_features=1024, out_features=1024, bias=True)
                (proj_drop): Dropout(p=0.0, inplace=False)
              )
              (ls1): LayerScale()
              (drop_path1): Identity()
              (norm2): LayerNorm((1024,), eps=1e-06, elementwise_affine=True)
              (mlp): Mlp(
                (fc1): Linear(in_features=1024, out_features=4096, bias=True)
                (act): GELU(approximate='none')
                (drop1): Dropout(p=0.0, inplace=False)
                (norm): Identity()
                (fc2): Linear(in_features=4096, out_features=1024, bias=True)
                (drop2): Dropout(p=0.0, inplace=False)
              )
              (ls2): LayerScale()
              (drop_path2): Identity()
            )
            (14): Block(
              (norm1): LayerNorm((1024,), eps=1e-06, elementwise_affine=True)
              (attn): Attention(
                (qkv): Linear(in_features=1024, out_features=3072, bias=True)
                (q_norm): Identity()
                (k_norm): Identity()
                (attn_drop): Dropout(p=0.0, inplace=False)
                (norm): Identity()
                (proj): Linear(in_features=1024, out_features=1024, bias=True)
                (proj_drop): Dropout(p=0.0, inplace=False)
              )
              (ls1): LayerScale()
              (drop_path1): Identity()
              (norm2): LayerNorm((1024,), eps=1e-06, elementwise_affine=True)
              (mlp): Mlp(
                (fc1): Linear(in_features=1024, out_features=4096, bias=True)
                (act): GELU(approximate='none')
                (drop1): Dropout(p=0.0, inplace=False)
                (norm): Identity()
                (fc2): Linear(in_features=4096, out_features=1024, bias=True)
                (drop2): Dropout(p=0.0, inplace=False)
              )
              (ls2): LayerScale()
              (drop_path2): Identity()
            )
            (15): Block(
              (norm1): LayerNorm((1024,), eps=1e-06, elementwise_affine=True)
              (attn): Attention(
                (qkv): Linear(in_features=1024, out_features=3072, bias=True)
                (q_norm): Identity()
                (k_norm): Identity()
                (attn_drop): Dropout(p=0.0, inplace=False)
                (norm): Identity()
                (proj): Linear(in_features=1024, out_features=1024, bias=True)
                (proj_drop): Dropout(p=0.0, inplace=False)
              )
              (ls1): LayerScale()
              (drop_path1): Identity()
              (norm2): LayerNorm((1024,), eps=1e-06, elementwise_affine=True)
              (mlp): Mlp(
                (fc1): Linear(in_features=1024, out_features=4096, bias=True)
                (act): GELU(approximate='none')
                (drop1): Dropout(p=0.0, inplace=False)
                (norm): Identity()
                (fc2): Linear(in_features=4096, out_features=1024, bias=True)
                (drop2): Dropout(p=0.0, inplace=False)
              )
              (ls2): LayerScale()
              (drop_path2): Identity()
            )
            (16): Block(
              (norm1): LayerNorm((1024,), eps=1e-06, elementwise_affine=True)
              (attn): Attention(
                (qkv): Linear(in_features=1024, out_features=3072, bias=True)
                (q_norm): Identity()
                (k_norm): Identity()
                (attn_drop): Dropout(p=0.0, inplace=False)
                (norm): Identity()
                (proj): Linear(in_features=1024, out_features=1024, bias=True)
                (proj_drop): Dropout(p=0.0, inplace=False)
              )
              (ls1): LayerScale()
              (drop_path1): Identity()
              (norm2): LayerNorm((1024,), eps=1e-06, elementwise_affine=True)
              (mlp): Mlp(
                (fc1): Linear(in_features=1024, out_features=4096, bias=True)
                (act): GELU(approximate='none')
                (drop1): Dropout(p=0.0, inplace=False)
                (norm): Identity()
                (fc2): Linear(in_features=4096, out_features=1024, bias=True)
                (drop2): Dropout(p=0.0, inplace=False)
              )
              (ls2): LayerScale()
              (drop_path2): Identity()
            )
            (17): Block(
              (norm1): LayerNorm((1024,), eps=1e-06, elementwise_affine=True)
              (attn): Attention(
                (qkv): Linear(in_features=1024, out_features=3072, bias=True)
                (q_norm): Identity()
                (k_norm): Identity()
                (attn_drop): Dropout(p=0.0, inplace=False)
                (norm): Identity()
                (proj): Linear(in_features=1024, out_features=1024, bias=True)
                (proj_drop): Dropout(p=0.0, inplace=False)
              )
              (ls1): LayerScale()
              (drop_path1): Identity()
              (norm2): LayerNorm((1024,), eps=1e-06, elementwise_affine=True)
              (mlp): Mlp(
                (fc1): Linear(in_features=1024, out_features=4096, bias=True)
                (act): GELU(approximate='none')
                (drop1): Dropout(p=0.0, inplace=False)
                (norm): Identity()
                (fc2): Linear(in_features=4096, out_features=1024, bias=True)
                (drop2): Dropout(p=0.0, inplace=False)
              )
              (ls2): LayerScale()
              (drop_path2): Identity()
            )
            (18): Block(
              (norm1): LayerNorm((1024,), eps=1e-06, elementwise_affine=True)
              (attn): Attention(
                (qkv): Linear(in_features=1024, out_features=3072, bias=True)
                (q_norm): Identity()
                (k_norm): Identity()
                (attn_drop): Dropout(p=0.0, inplace=False)
                (norm): Identity()
                (proj): Linear(in_features=1024, out_features=1024, bias=True)
                (proj_drop): Dropout(p=0.0, inplace=False)
              )
              (ls1): LayerScale()
              (drop_path1): Identity()
              (norm2): LayerNorm((1024,), eps=1e-06, elementwise_affine=True)
              (mlp): Mlp(
                (fc1): Linear(in_features=1024, out_features=4096, bias=True)
                (act): GELU(approximate='none')
                (drop1): Dropout(p=0.0, inplace=False)
                (norm): Identity()
                (fc2): Linear(in_features=4096, out_features=1024, bias=True)
                (drop2): Dropout(p=0.0, inplace=False)
              )
              (ls2): LayerScale()
              (drop_path2): Identity()
            )
            (19): Block(
              (norm1): LayerNorm((1024,), eps=1e-06, elementwise_affine=True)
              (attn): Attention(
                (qkv): Linear(in_features=1024, out_features=3072, bias=True)
                (q_norm): Identity()
                (k_norm): Identity()
                (attn_drop): Dropout(p=0.0, inplace=False)
                (norm): Identity()
                (proj): Linear(in_features=1024, out_features=1024, bias=True)
                (proj_drop): Dropout(p=0.0, inplace=False)
              )
              (ls1): LayerScale()
              (drop_path1): Identity()
              (norm2): LayerNorm((1024,), eps=1e-06, elementwise_affine=True)
              (mlp): Mlp(
                (fc1): Linear(in_features=1024, out_features=4096, bias=True)
                (act): GELU(approximate='none')
                (drop1): Dropout(p=0.0, inplace=False)
                (norm): Identity()
                (fc2): Linear(in_features=4096, out_features=1024, bias=True)
                (drop2): Dropout(p=0.0, inplace=False)
              )
              (ls2): LayerScale()
              (drop_path2): Identity()
            )
            (20): Block(
              (norm1): LayerNorm((1024,), eps=1e-06, elementwise_affine=True)
              (attn): Attention(
                (qkv): Linear(in_features=1024, out_features=3072, bias=True)
                (q_norm): Identity()
                (k_norm): Identity()
                (attn_drop): Dropout(p=0.0, inplace=False)
                (norm): Identity()
                (proj): Linear(in_features=1024, out_features=1024, bias=True)
                (proj_drop): Dropout(p=0.0, inplace=False)
              )
              (ls1): LayerScale()
              (drop_path1): Identity()
              (norm2): LayerNorm((1024,), eps=1e-06, elementwise_affine=True)
              (mlp): Mlp(
                (fc1): Linear(in_features=1024, out_features=4096, bias=True)
                (act): GELU(approximate='none')
                (drop1): Dropout(p=0.0, inplace=False)
                (norm): Identity()
                (fc2): Linear(in_features=4096, out_features=1024, bias=True)
                (drop2): Dropout(p=0.0, inplace=False)
              )
              (ls2): LayerScale()
              (drop_path2): Identity()
            )
            (21): Block(
              (norm1): LayerNorm((1024,), eps=1e-06, elementwise_affine=True)
              (attn): Attention(
                (qkv): Linear(in_features=1024, out_features=3072, bias=True)
                (q_norm): Identity()
                (k_norm): Identity()
                (attn_drop): Dropout(p=0.0, inplace=False)
                (norm): Identity()
                (proj): Linear(in_features=1024, out_features=1024, bias=True)
                (proj_drop): Dropout(p=0.0, inplace=False)
              )
              (ls1): LayerScale()
              (drop_path1): Identity()
              (norm2): LayerNorm((1024,), eps=1e-06, elementwise_affine=True)
              (mlp): Mlp(
                (fc1): Linear(in_features=1024, out_features=4096, bias=True)
                (act): GELU(approximate='none')
                (drop1): Dropout(p=0.0, inplace=False)
                (norm): Identity()
                (fc2): Linear(in_features=4096, out_features=1024, bias=True)
                (drop2): Dropout(p=0.0, inplace=False)
              )
              (ls2): LayerScale()
              (drop_path2): Identity()
            )
            (22): Block(
              (norm1): LayerNorm((1024,), eps=1e-06, elementwise_affine=True)
              (attn): Attention(
                (qkv): Linear(in_features=1024, out_features=3072, bias=True)
                (q_norm): Identity()
                (k_norm): Identity()
                (attn_drop): Dropout(p=0.0, inplace=False)
                (norm): Identity()
                (proj): Linear(in_features=1024, out_features=1024, bias=True)
                (proj_drop): Dropout(p=0.0, inplace=False)
              )
              (ls1): LayerScale()
              (drop_path1): Identity()
              (norm2): LayerNorm((1024,), eps=1e-06, elementwise_affine=True)
              (mlp): Mlp(
                (fc1): Linear(in_features=1024, out_features=4096, bias=True)
                (act): GELU(approximate='none')
                (drop1): Dropout(p=0.0, inplace=False)
                (norm): Identity()
                (fc2): Linear(in_features=4096, out_features=1024, bias=True)
                (drop2): Dropout(p=0.0, inplace=False)
              )
              (ls2): LayerScale()
              (drop_path2): Identity()
            )
            (23): Block(
              (norm1): LayerNorm((1024,), eps=1e-06, elementwise_affine=True)
              (attn): Attention(
                (qkv): Linear(in_features=1024, out_features=3072, bias=True)
                (q_norm): Identity()
                (k_norm): Identity()
                (attn_drop): Dropout(p=0.0, inplace=False)
                (norm): Identity()
                (proj): Linear(in_features=1024, out_features=1024, bias=True)
                (proj_drop): Dropout(p=0.0, inplace=False)
              )
              (ls1): LayerScale()
              (drop_path1): Identity()
              (norm2): LayerNorm((1024,), eps=1e-06, elementwise_affine=True)
              (mlp): Mlp(
                (fc1): Linear(in_features=1024, out_features=4096, bias=True)
                (act): GELU(approximate='none')
                (drop1): Dropout(p=0.0, inplace=False)
                (norm): Identity()
                (fc2): Linear(in_features=4096, out_features=1024, bias=True)
                (drop2): Dropout(p=0.0, inplace=False)
              )
              (ls2): LayerScale()
              (drop_path2): Identity()
            )
          )
          (norm): LayerNorm((1024,), eps=1e-06, elementwise_affine=True)
          (fc_norm): Identity()
          (head_drop): Dropout(p=0.0, inplace=False)
          (head): Identity()
        )
      )
    )
    (dino_head): FullyShardedDataParallel(
      (_fsdp_wrapped_module): DINOHead(
        (mlp): Sequential(
          (0): Linear(in_features=1024, out_features=2048, bias=True)
          (1): GELU(approximate='none')
          (2): Linear(in_features=2048, out_features=2048, bias=True)
          (3): GELU(approximate='none')
          (4): Linear(in_features=2048, out_features=256, bias=True)
        )
        (last_layer): Linear(in_features=256, out_features=65536, bias=False)
      )
    )
    (ibot_head): FullyShardedDataParallel(
      (_fsdp_wrapped_module): DINOHead(
        (mlp): Sequential(
          (0): Linear(in_features=1024, out_features=2048, bias=True)
          (1): GELU(approximate='none')
          (2): Linear(in_features=2048, out_features=2048, bias=True)
          (3): GELU(approximate='none')
          (4): Linear(in_features=2048, out_features=256, bias=True)
        )
        (last_layer): Linear(in_features=256, out_features=65536, bias=False)
      )
    )
  )
  (teacher): ModuleDict(
    (backbone): FullyShardedDataParallel(
      (_fsdp_wrapped_module): BackboneAdapter(
        (model): VisionTransformer(
          (patch_embed): PatchEmbed(
            (proj): Conv2d(3, 1024, kernel_size=(16, 16), stride=(16, 16))
            (norm): Identity()
          )
          (pos_drop): Dropout(p=0.0, inplace=False)
          (patch_drop): Identity()
          (norm_pre): Identity()
          (blocks): Sequential(
            (0): Block(
              (norm1): LayerNorm((1024,), eps=1e-06, elementwise_affine=True)
              (attn): Attention(
                (qkv): Linear(in_features=1024, out_features=3072, bias=True)
                (q_norm): Identity()
                (k_norm): Identity()
                (attn_drop): Dropout(p=0.0, inplace=False)
                (norm): Identity()
                (proj): Linear(in_features=1024, out_features=1024, bias=True)
                (proj_drop): Dropout(p=0.0, inplace=False)
              )
              (ls1): LayerScale()
              (drop_path1): Identity()
              (norm2): LayerNorm((1024,), eps=1e-06, elementwise_affine=True)
              (mlp): Mlp(
                (fc1): Linear(in_features=1024, out_features=4096, bias=True)
                (act): GELU(approximate='none')
                (drop1): Dropout(p=0.0, inplace=False)
                (norm): Identity()
                (fc2): Linear(in_features=4096, out_features=1024, bias=True)
                (drop2): Dropout(p=0.0, inplace=False)
              )
              (ls2): LayerScale()
              (drop_path2): Identity()
            )
            (1): Block(
              (norm1): LayerNorm((1024,), eps=1e-06, elementwise_affine=True)
              (attn): Attention(
                (qkv): Linear(in_features=1024, out_features=3072, bias=True)
                (q_norm): Identity()
                (k_norm): Identity()
                (attn_drop): Dropout(p=0.0, inplace=False)
                (norm): Identity()
                (proj): Linear(in_features=1024, out_features=1024, bias=True)
                (proj_drop): Dropout(p=0.0, inplace=False)
              )
              (ls1): LayerScale()
              (drop_path1): Identity()
              (norm2): LayerNorm((1024,), eps=1e-06, elementwise_affine=True)
              (mlp): Mlp(
                (fc1): Linear(in_features=1024, out_features=4096, bias=True)
                (act): GELU(approximate='none')
                (drop1): Dropout(p=0.0, inplace=False)
                (norm): Identity()
                (fc2): Linear(in_features=4096, out_features=1024, bias=True)
                (drop2): Dropout(p=0.0, inplace=False)
              )
              (ls2): LayerScale()
              (drop_path2): Identity()
            )
            (2): Block(
              (norm1): LayerNorm((1024,), eps=1e-06, elementwise_affine=True)
              (attn): Attention(
                (qkv): Linear(in_features=1024, out_features=3072, bias=True)
                (q_norm): Identity()
                (k_norm): Identity()
                (attn_drop): Dropout(p=0.0, inplace=False)
                (norm): Identity()
                (proj): Linear(in_features=1024, out_features=1024, bias=True)
                (proj_drop): Dropout(p=0.0, inplace=False)
              )
              (ls1): LayerScale()
              (drop_path1): Identity()
              (norm2): LayerNorm((1024,), eps=1e-06, elementwise_affine=True)
              (mlp): Mlp(
                (fc1): Linear(in_features=1024, out_features=4096, bias=True)
                (act): GELU(approximate='none')
                (drop1): Dropout(p=0.0, inplace=False)
                (norm): Identity()
                (fc2): Linear(in_features=4096, out_features=1024, bias=True)
                (drop2): Dropout(p=0.0, inplace=False)
              )
              (ls2): LayerScale()
              (drop_path2): Identity()
            )
            (3): Block(
              (norm1): LayerNorm((1024,), eps=1e-06, elementwise_affine=True)
              (attn): Attention(
                (qkv): Linear(in_features=1024, out_features=3072, bias=True)
                (q_norm): Identity()
                (k_norm): Identity()
                (attn_drop): Dropout(p=0.0, inplace=False)
                (norm): Identity()
                (proj): Linear(in_features=1024, out_features=1024, bias=True)
                (proj_drop): Dropout(p=0.0, inplace=False)
              )
              (ls1): LayerScale()
              (drop_path1): Identity()
              (norm2): LayerNorm((1024,), eps=1e-06, elementwise_affine=True)
              (mlp): Mlp(
                (fc1): Linear(in_features=1024, out_features=4096, bias=True)
                (act): GELU(approximate='none')
                (drop1): Dropout(p=0.0, inplace=False)
                (norm): Identity()
                (fc2): Linear(in_features=4096, out_features=1024, bias=True)
                (drop2): Dropout(p=0.0, inplace=False)
              )
              (ls2): LayerScale()
              (drop_path2): Identity()
            )
            (4): Block(
              (norm1): LayerNorm((1024,), eps=1e-06, elementwise_affine=True)
              (attn): Attention(
                (qkv): Linear(in_features=1024, out_features=3072, bias=True)
                (q_norm): Identity()
                (k_norm): Identity()
                (attn_drop): Dropout(p=0.0, inplace=False)
                (norm): Identity()
                (proj): Linear(in_features=1024, out_features=1024, bias=True)
                (proj_drop): Dropout(p=0.0, inplace=False)
              )
              (ls1): LayerScale()
              (drop_path1): Identity()
              (norm2): LayerNorm((1024,), eps=1e-06, elementwise_affine=True)
              (mlp): Mlp(
                (fc1): Linear(in_features=1024, out_features=4096, bias=True)
                (act): GELU(approximate='none')
                (drop1): Dropout(p=0.0, inplace=False)
                (norm): Identity()
                (fc2): Linear(in_features=4096, out_features=1024, bias=True)
                (drop2): Dropout(p=0.0, inplace=False)
              )
              (ls2): LayerScale()
              (drop_path2): Identity()
            )
            (5): Block(
              (norm1): LayerNorm((1024,), eps=1e-06, elementwise_affine=True)
              (attn): Attention(
                (qkv): Linear(in_features=1024, out_features=3072, bias=True)
                (q_norm): Identity()
                (k_norm): Identity()
                (attn_drop): Dropout(p=0.0, inplace=False)
                (norm): Identity()
                (proj): Linear(in_features=1024, out_features=1024, bias=True)
                (proj_drop): Dropout(p=0.0, inplace=False)
              )
              (ls1): LayerScale()
              (drop_path1): Identity()
              (norm2): LayerNorm((1024,), eps=1e-06, elementwise_affine=True)
              (mlp): Mlp(
                (fc1): Linear(in_features=1024, out_features=4096, bias=True)
                (act): GELU(approximate='none')
                (drop1): Dropout(p=0.0, inplace=False)
                (norm): Identity()
                (fc2): Linear(in_features=4096, out_features=1024, bias=True)
                (drop2): Dropout(p=0.0, inplace=False)
              )
              (ls2): LayerScale()
              (drop_path2): Identity()
            )
            (6): Block(
              (norm1): LayerNorm((1024,), eps=1e-06, elementwise_affine=True)
              (attn): Attention(
                (qkv): Linear(in_features=1024, out_features=3072, bias=True)
                (q_norm): Identity()
                (k_norm): Identity()
                (attn_drop): Dropout(p=0.0, inplace=False)
                (norm): Identity()
                (proj): Linear(in_features=1024, out_features=1024, bias=True)
                (proj_drop): Dropout(p=0.0, inplace=False)
              )
              (ls1): LayerScale()
              (drop_path1): Identity()
              (norm2): LayerNorm((1024,), eps=1e-06, elementwise_affine=True)
              (mlp): Mlp(
                (fc1): Linear(in_features=1024, out_features=4096, bias=True)
                (act): GELU(approximate='none')
                (drop1): Dropout(p=0.0, inplace=False)
                (norm): Identity()
                (fc2): Linear(in_features=4096, out_features=1024, bias=True)
                (drop2): Dropout(p=0.0, inplace=False)
              )
              (ls2): LayerScale()
              (drop_path2): Identity()
            )
            (7): Block(
              (norm1): LayerNorm((1024,), eps=1e-06, elementwise_affine=True)
              (attn): Attention(
                (qkv): Linear(in_features=1024, out_features=3072, bias=True)
                (q_norm): Identity()
                (k_norm): Identity()
                (attn_drop): Dropout(p=0.0, inplace=False)
                (norm): Identity()
                (proj): Linear(in_features=1024, out_features=1024, bias=True)
                (proj_drop): Dropout(p=0.0, inplace=False)
              )
              (ls1): LayerScale()
              (drop_path1): Identity()
              (norm2): LayerNorm((1024,), eps=1e-06, elementwise_affine=True)
              (mlp): Mlp(
                (fc1): Linear(in_features=1024, out_features=4096, bias=True)
                (act): GELU(approximate='none')
                (drop1): Dropout(p=0.0, inplace=False)
                (norm): Identity()
                (fc2): Linear(in_features=4096, out_features=1024, bias=True)
                (drop2): Dropout(p=0.0, inplace=False)
              )
              (ls2): LayerScale()
              (drop_path2): Identity()
            )
            (8): Block(
              (norm1): LayerNorm((1024,), eps=1e-06, elementwise_affine=True)
              (attn): Attention(
                (qkv): Linear(in_features=1024, out_features=3072, bias=True)
                (q_norm): Identity()
                (k_norm): Identity()
                (attn_drop): Dropout(p=0.0, inplace=False)
                (norm): Identity()
                (proj): Linear(in_features=1024, out_features=1024, bias=True)
                (proj_drop): Dropout(p=0.0, inplace=False)
              )
              (ls1): LayerScale()
              (drop_path1): Identity()
              (norm2): LayerNorm((1024,), eps=1e-06, elementwise_affine=True)
              (mlp): Mlp(
                (fc1): Linear(in_features=1024, out_features=4096, bias=True)
                (act): GELU(approximate='none')
                (drop1): Dropout(p=0.0, inplace=False)
                (norm): Identity()
                (fc2): Linear(in_features=4096, out_features=1024, bias=True)
                (drop2): Dropout(p=0.0, inplace=False)
              )
              (ls2): LayerScale()
              (drop_path2): Identity()
            )
            (9): Block(
              (norm1): LayerNorm((1024,), eps=1e-06, elementwise_affine=True)
              (attn): Attention(
                (qkv): Linear(in_features=1024, out_features=3072, bias=True)
                (q_norm): Identity()
                (k_norm): Identity()
                (attn_drop): Dropout(p=0.0, inplace=False)
                (norm): Identity()
                (proj): Linear(in_features=1024, out_features=1024, bias=True)
                (proj_drop): Dropout(p=0.0, inplace=False)
              )
              (ls1): LayerScale()
              (drop_path1): Identity()
              (norm2): LayerNorm((1024,), eps=1e-06, elementwise_affine=True)
              (mlp): Mlp(
                (fc1): Linear(in_features=1024, out_features=4096, bias=True)
                (act): GELU(approximate='none')
                (drop1): Dropout(p=0.0, inplace=False)
                (norm): Identity()
                (fc2): Linear(in_features=4096, out_features=1024, bias=True)
                (drop2): Dropout(p=0.0, inplace=False)
              )
              (ls2): LayerScale()
              (drop_path2): Identity()
            )
            (10): Block(
              (norm1): LayerNorm((1024,), eps=1e-06, elementwise_affine=True)
              (attn): Attention(
                (qkv): Linear(in_features=1024, out_features=3072, bias=True)
                (q_norm): Identity()
                (k_norm): Identity()
                (attn_drop): Dropout(p=0.0, inplace=False)
                (norm): Identity()
                (proj): Linear(in_features=1024, out_features=1024, bias=True)
                (proj_drop): Dropout(p=0.0, inplace=False)
              )
              (ls1): LayerScale()
              (drop_path1): Identity()
              (norm2): LayerNorm((1024,), eps=1e-06, elementwise_affine=True)
              (mlp): Mlp(
                (fc1): Linear(in_features=1024, out_features=4096, bias=True)
                (act): GELU(approximate='none')
                (drop1): Dropout(p=0.0, inplace=False)
                (norm): Identity()
                (fc2): Linear(in_features=4096, out_features=1024, bias=True)
                (drop2): Dropout(p=0.0, inplace=False)
              )
              (ls2): LayerScale()
              (drop_path2): Identity()
            )
            (11): Block(
              (norm1): LayerNorm((1024,), eps=1e-06, elementwise_affine=True)
              (attn): Attention(
                (qkv): Linear(in_features=1024, out_features=3072, bias=True)
                (q_norm): Identity()
                (k_norm): Identity()
                (attn_drop): Dropout(p=0.0, inplace=False)
                (norm): Identity()
                (proj): Linear(in_features=1024, out_features=1024, bias=True)
                (proj_drop): Dropout(p=0.0, inplace=False)
              )
              (ls1): LayerScale()
              (drop_path1): Identity()
              (norm2): LayerNorm((1024,), eps=1e-06, elementwise_affine=True)
              (mlp): Mlp(
                (fc1): Linear(in_features=1024, out_features=4096, bias=True)
                (act): GELU(approximate='none')
                (drop1): Dropout(p=0.0, inplace=False)
                (norm): Identity()
                (fc2): Linear(in_features=4096, out_features=1024, bias=True)
                (drop2): Dropout(p=0.0, inplace=False)
              )
              (ls2): LayerScale()
              (drop_path2): Identity()
            )
            (12): Block(
              (norm1): LayerNorm((1024,), eps=1e-06, elementwise_affine=True)
              (attn): Attention(
                (qkv): Linear(in_features=1024, out_features=3072, bias=True)
                (q_norm): Identity()
                (k_norm): Identity()
                (attn_drop): Dropout(p=0.0, inplace=False)
                (norm): Identity()
                (proj): Linear(in_features=1024, out_features=1024, bias=True)
                (proj_drop): Dropout(p=0.0, inplace=False)
              )
              (ls1): LayerScale()
              (drop_path1): Identity()
              (norm2): LayerNorm((1024,), eps=1e-06, elementwise_affine=True)
              (mlp): Mlp(
                (fc1): Linear(in_features=1024, out_features=4096, bias=True)
                (act): GELU(approximate='none')
                (drop1): Dropout(p=0.0, inplace=False)
                (norm): Identity()
                (fc2): Linear(in_features=4096, out_features=1024, bias=True)
                (drop2): Dropout(p=0.0, inplace=False)
              )
              (ls2): LayerScale()
              (drop_path2): Identity()
            )
            (13): Block(
              (norm1): LayerNorm((1024,), eps=1e-06, elementwise_affine=True)
              (attn): Attention(
                (qkv): Linear(in_features=1024, out_features=3072, bias=True)
                (q_norm): Identity()
                (k_norm): Identity()
                (attn_drop): Dropout(p=0.0, inplace=False)
                (norm): Identity()
                (proj): Linear(in_features=1024, out_features=1024, bias=True)
                (proj_drop): Dropout(p=0.0, inplace=False)
              )
              (ls1): LayerScale()
              (drop_path1): Identity()
              (norm2): LayerNorm((1024,), eps=1e-06, elementwise_affine=True)
              (mlp): Mlp(
                (fc1): Linear(in_features=1024, out_features=4096, bias=True)
                (act): GELU(approximate='none')
                (drop1): Dropout(p=0.0, inplace=False)
                (norm): Identity()
                (fc2): Linear(in_features=4096, out_features=1024, bias=True)
                (drop2): Dropout(p=0.0, inplace=False)
              )
              (ls2): LayerScale()
              (drop_path2): Identity()
            )
            (14): Block(
              (norm1): LayerNorm((1024,), eps=1e-06, elementwise_affine=True)
              (attn): Attention(
                (qkv): Linear(in_features=1024, out_features=3072, bias=True)
                (q_norm): Identity()
                (k_norm): Identity()
                (attn_drop): Dropout(p=0.0, inplace=False)
                (norm): Identity()
                (proj): Linear(in_features=1024, out_features=1024, bias=True)
                (proj_drop): Dropout(p=0.0, inplace=False)
              )
              (ls1): LayerScale()
              (drop_path1): Identity()
              (norm2): LayerNorm((1024,), eps=1e-06, elementwise_affine=True)
              (mlp): Mlp(
                (fc1): Linear(in_features=1024, out_features=4096, bias=True)
                (act): GELU(approximate='none')
                (drop1): Dropout(p=0.0, inplace=False)
                (norm): Identity()
                (fc2): Linear(in_features=4096, out_features=1024, bias=True)
                (drop2): Dropout(p=0.0, inplace=False)
              )
              (ls2): LayerScale()
              (drop_path2): Identity()
            )
            (15): Block(
              (norm1): LayerNorm((1024,), eps=1e-06, elementwise_affine=True)
              (attn): Attention(
                (qkv): Linear(in_features=1024, out_features=3072, bias=True)
                (q_norm): Identity()
                (k_norm): Identity()
                (attn_drop): Dropout(p=0.0, inplace=False)
                (norm): Identity()
                (proj): Linear(in_features=1024, out_features=1024, bias=True)
                (proj_drop): Dropout(p=0.0, inplace=False)
              )
              (ls1): LayerScale()
              (drop_path1): Identity()
              (norm2): LayerNorm((1024,), eps=1e-06, elementwise_affine=True)
              (mlp): Mlp(
                (fc1): Linear(in_features=1024, out_features=4096, bias=True)
                (act): GELU(approximate='none')
                (drop1): Dropout(p=0.0, inplace=False)
                (norm): Identity()
                (fc2): Linear(in_features=4096, out_features=1024, bias=True)
                (drop2): Dropout(p=0.0, inplace=False)
              )
              (ls2): LayerScale()
              (drop_path2): Identity()
            )
            (16): Block(
              (norm1): LayerNorm((1024,), eps=1e-06, elementwise_affine=True)
              (attn): Attention(
                (qkv): Linear(in_features=1024, out_features=3072, bias=True)
                (q_norm): Identity()
                (k_norm): Identity()
                (attn_drop): Dropout(p=0.0, inplace=False)
                (norm): Identity()
                (proj): Linear(in_features=1024, out_features=1024, bias=True)
                (proj_drop): Dropout(p=0.0, inplace=False)
              )
              (ls1): LayerScale()
              (drop_path1): Identity()
              (norm2): LayerNorm((1024,), eps=1e-06, elementwise_affine=True)
              (mlp): Mlp(
                (fc1): Linear(in_features=1024, out_features=4096, bias=True)
                (act): GELU(approximate='none')
                (drop1): Dropout(p=0.0, inplace=False)
                (norm): Identity()
                (fc2): Linear(in_features=4096, out_features=1024, bias=True)
                (drop2): Dropout(p=0.0, inplace=False)
              )
              (ls2): LayerScale()
              (drop_path2): Identity()
            )
            (17): Block(
              (norm1): LayerNorm((1024,), eps=1e-06, elementwise_affine=True)
              (attn): Attention(
                (qkv): Linear(in_features=1024, out_features=3072, bias=True)
                (q_norm): Identity()
                (k_norm): Identity()
                (attn_drop): Dropout(p=0.0, inplace=False)
                (norm): Identity()
                (proj): Linear(in_features=1024, out_features=1024, bias=True)
                (proj_drop): Dropout(p=0.0, inplace=False)
              )
              (ls1): LayerScale()
              (drop_path1): Identity()
              (norm2): LayerNorm((1024,), eps=1e-06, elementwise_affine=True)
              (mlp): Mlp(
                (fc1): Linear(in_features=1024, out_features=4096, bias=True)
                (act): GELU(approximate='none')
                (drop1): Dropout(p=0.0, inplace=False)
                (norm): Identity()
                (fc2): Linear(in_features=4096, out_features=1024, bias=True)
                (drop2): Dropout(p=0.0, inplace=False)
              )
              (ls2): LayerScale()
              (drop_path2): Identity()
            )
            (18): Block(
              (norm1): LayerNorm((1024,), eps=1e-06, elementwise_affine=True)
              (attn): Attention(
                (qkv): Linear(in_features=1024, out_features=3072, bias=True)
                (q_norm): Identity()
                (k_norm): Identity()
                (attn_drop): Dropout(p=0.0, inplace=False)
                (norm): Identity()
                (proj): Linear(in_features=1024, out_features=1024, bias=True)
                (proj_drop): Dropout(p=0.0, inplace=False)
              )
              (ls1): LayerScale()
              (drop_path1): Identity()
              (norm2): LayerNorm((1024,), eps=1e-06, elementwise_affine=True)
              (mlp): Mlp(
                (fc1): Linear(in_features=1024, out_features=4096, bias=True)
                (act): GELU(approximate='none')
                (drop1): Dropout(p=0.0, inplace=False)
                (norm): Identity()
                (fc2): Linear(in_features=4096, out_features=1024, bias=True)
                (drop2): Dropout(p=0.0, inplace=False)
              )
              (ls2): LayerScale()
              (drop_path2): Identity()
            )
            (19): Block(
              (norm1): LayerNorm((1024,), eps=1e-06, elementwise_affine=True)
              (attn): Attention(
                (qkv): Linear(in_features=1024, out_features=3072, bias=True)
                (q_norm): Identity()
                (k_norm): Identity()
                (attn_drop): Dropout(p=0.0, inplace=False)
                (norm): Identity()
                (proj): Linear(in_features=1024, out_features=1024, bias=True)
                (proj_drop): Dropout(p=0.0, inplace=False)
              )
              (ls1): LayerScale()
              (drop_path1): Identity()
              (norm2): LayerNorm((1024,), eps=1e-06, elementwise_affine=True)
              (mlp): Mlp(
                (fc1): Linear(in_features=1024, out_features=4096, bias=True)
                (act): GELU(approximate='none')
                (drop1): Dropout(p=0.0, inplace=False)
                (norm): Identity()
                (fc2): Linear(in_features=4096, out_features=1024, bias=True)
                (drop2): Dropout(p=0.0, inplace=False)
              )
              (ls2): LayerScale()
              (drop_path2): Identity()
            )
            (20): Block(
              (norm1): LayerNorm((1024,), eps=1e-06, elementwise_affine=True)
              (attn): Attention(
                (qkv): Linear(in_features=1024, out_features=3072, bias=True)
                (q_norm): Identity()
                (k_norm): Identity()
                (attn_drop): Dropout(p=0.0, inplace=False)
                (norm): Identity()
                (proj): Linear(in_features=1024, out_features=1024, bias=True)
                (proj_drop): Dropout(p=0.0, inplace=False)
              )
              (ls1): LayerScale()
              (drop_path1): Identity()
              (norm2): LayerNorm((1024,), eps=1e-06, elementwise_affine=True)
              (mlp): Mlp(
                (fc1): Linear(in_features=1024, out_features=4096, bias=True)
                (act): GELU(approximate='none')
                (drop1): Dropout(p=0.0, inplace=False)
                (norm): Identity()
                (fc2): Linear(in_features=4096, out_features=1024, bias=True)
                (drop2): Dropout(p=0.0, inplace=False)
              )
              (ls2): LayerScale()
              (drop_path2): Identity()
            )
            (21): Block(
              (norm1): LayerNorm((1024,), eps=1e-06, elementwise_affine=True)
              (attn): Attention(
                (qkv): Linear(in_features=1024, out_features=3072, bias=True)
                (q_norm): Identity()
                (k_norm): Identity()
                (attn_drop): Dropout(p=0.0, inplace=False)
                (norm): Identity()
                (proj): Linear(in_features=1024, out_features=1024, bias=True)
                (proj_drop): Dropout(p=0.0, inplace=False)
              )
              (ls1): LayerScale()
              (drop_path1): Identity()
              (norm2): LayerNorm((1024,), eps=1e-06, elementwise_affine=True)
              (mlp): Mlp(
                (fc1): Linear(in_features=1024, out_features=4096, bias=True)
                (act): GELU(approximate='none')
                (drop1): Dropout(p=0.0, inplace=False)
                (norm): Identity()
                (fc2): Linear(in_features=4096, out_features=1024, bias=True)
                (drop2): Dropout(p=0.0, inplace=False)
              )
              (ls2): LayerScale()
              (drop_path2): Identity()
            )
            (22): Block(
              (norm1): LayerNorm((1024,), eps=1e-06, elementwise_affine=True)
              (attn): Attention(
                (qkv): Linear(in_features=1024, out_features=3072, bias=True)
                (q_norm): Identity()
                (k_norm): Identity()
                (attn_drop): Dropout(p=0.0, inplace=False)
                (norm): Identity()
                (proj): Linear(in_features=1024, out_features=1024, bias=True)
                (proj_drop): Dropout(p=0.0, inplace=False)
              )
              (ls1): LayerScale()
              (drop_path1): Identity()
              (norm2): LayerNorm((1024,), eps=1e-06, elementwise_affine=True)
              (mlp): Mlp(
                (fc1): Linear(in_features=1024, out_features=4096, bias=True)
                (act): GELU(approximate='none')
                (drop1): Dropout(p=0.0, inplace=False)
                (norm): Identity()
                (fc2): Linear(in_features=4096, out_features=1024, bias=True)
                (drop2): Dropout(p=0.0, inplace=False)
              )
              (ls2): LayerScale()
              (drop_path2): Identity()
            )
            (23): Block(
              (norm1): LayerNorm((1024,), eps=1e-06, elementwise_affine=True)
              (attn): Attention(
                (qkv): Linear(in_features=1024, out_features=3072, bias=True)
                (q_norm): Identity()
                (k_norm): Identity()
                (attn_drop): Dropout(p=0.0, inplace=False)
                (norm): Identity()
                (proj): Linear(in_features=1024, out_features=1024, bias=True)
                (proj_drop): Dropout(p=0.0, inplace=False)
              )
              (ls1): LayerScale()
              (drop_path1): Identity()
              (norm2): LayerNorm((1024,), eps=1e-06, elementwise_affine=True)
              (mlp): Mlp(
                (fc1): Linear(in_features=1024, out_features=4096, bias=True)
                (act): GELU(approximate='none')
                (drop1): Dropout(p=0.0, inplace=False)
                (norm): Identity()
                (fc2): Linear(in_features=4096, out_features=1024, bias=True)
                (drop2): Dropout(p=0.0, inplace=False)
              )
              (ls2): LayerScale()
              (drop_path2): Identity()
            )
          )
          (norm): LayerNorm((1024,), eps=1e-06, elementwise_affine=True)
          (fc_norm): Identity()
          (head_drop): Dropout(p=0.0, inplace=False)
          (head): Identity()
        )
      )
    )
    (dino_head): FullyShardedDataParallel(
      (_fsdp_wrapped_module): DINOHead(
        (mlp): Sequential(
          (0): Linear(in_features=1024, out_features=2048, bias=True)
          (1): GELU(approximate='none')
          (2): Linear(in_features=2048, out_features=2048, bias=True)
          (3): GELU(approximate='none')
          (4): Linear(in_features=2048, out_features=256, bias=True)
        )
        (last_layer): Linear(in_features=256, out_features=65536, bias=False)
      )
    )
    (ibot_head): FullyShardedDataParallel(
      (_fsdp_wrapped_module): DINOHead(
        (mlp): Sequential(
          (0): Linear(in_features=1024, out_features=2048, bias=True)
          (1): GELU(approximate='none')
          (2): Linear(in_features=2048, out_features=2048, bias=True)
          (3): GELU(approximate='none')
          (4): Linear(in_features=2048, out_features=256, bias=True)
        )
        (last_layer): Linear(in_features=256, out_features=65536, bias=False)
      )
    )
  )
)
I20251117 21:24:17 553249 dinov2 param_groups.py:54] else code branch
I20251117 21:24:17 553249 dinov2 param_groups.py:77] model.cls_token: lr_multiplier: 1.0, wd_multiplier: 1.0
I20251117 21:24:17 553249 dinov2 param_groups.py:77] model.pos_embed: lr_multiplier: 1.0, wd_multiplier: 1.0
I20251117 21:24:17 553249 dinov2 param_groups.py:77] model.patch_embed.proj.weight: lr_multiplier: 0.2, wd_multiplier: 1.0
…
